…
tion":{"iopub.status.busy":"2024-01-23T09:19:14.350252Z","iopub.execute_input":"2024-01-23T09:19:14.350682Z","iopub.status.idle":"2024-01-23T09:19:14.358625Z","shell.execute_reply.started":"2024-01-23T09:19:14.350646Z","shell.execute_reply":"2024-01-23T09:19:14.357390Z"},"trusted":true},"execution_count":42,"outputs":[{"name":"stdout","text":"Model: \"sequential_2\"\n_________________________________________________________________\nLayer (type)                 Output Shape              Param #   \n=================================================================\ndense_6 (Dense)              (None, 30)                720       \n_________________________________________________________________\nbatch_normalization_2 (Batch (None, 30)                120       \n_________________________________________________________________\ndropout_4 (Dropout)          (None, 30)                0         \n_________________________________________________________________\ndense_7 (Dense)              (None, 30)                930       \n_________________________________________________________________\nbatch_normalization_3 (Batch (None, 30)                120       \n_________________________________________________________________\ndropout_5 (Dropout)          (None, 30)                0         \n_________________________________________________________________\ndense_8 (Dense)              (None, 1)                 31        \n=================================================================\nTotal params: 1,921\nTrainable params: 1,801\nNon-trainable params: 120\n_________________________________________________________________\n","output_type":"stream"}]},{"cell_type":"code","source":"losses = pd.DataFrame(ann.history.history)\nlosses.plot()","metadata":{"execution":{"iopub.status.busy":"2024-01-23T09:19:14.
…
